…
ser":{"displayName":"Kanhaiya Kemdarne","userId":"00153612749799279777"}}},"execution_count":50,"outputs":[]},{"cell_type":"code","source":["model"],"metadata":{"colab":{"base_uri":"https://localhost:8080/"},"id":"UFlk-v7JnE8I","executionInfo":{"status":"ok","timestamp":1748502346370,"user_tz":-330,"elapsed":32,"user":{"displayName":"Kanhaiya Kemdarne","userId":"00153612749799279777"}},"outputId":"9a4970c4-0f4a-43d0-d281-aac4a65701e3"},"execution_count":51,"outputs":[{"output_type":"execute_result","data":{"text/plain":["VisionTransformer(\n","  (patch_embedding): PatchEmbedding(\n","    (proj): Conv2d(3, 256, kernel_size=(4, 4), stride=(4, 4))\n","  )\n","  (encoder): Sequential(\n","    (0): TransformerEncoderLayer(\n","      (norm1): LayerNorm((256,), eps=1e-05, elementwise_affine=True)\n","      (attn): MultiheadAttention(\n","        (out_proj): NonDynamicallyQuantizableLinear(in_features=256, out_features=256, bias=True)\n","      )\n","      (norm2): LayerNorm((256,), eps=1e-05, elementwise_affine=True)\n","      (mlp): MLP(\n","        (fc1): Linear(in_features=256, out_features=512, bias=True)\n","        (fc2): Linear(in_features=512, out_features=256, bias=True)\n","        (dropout): Dropout(p=0.1, inplace=False)\n","      )\n","    )\n","    (1): TransformerEncoderLayer(\n","      (norm1): LayerNorm((256,), eps=1e-05, elementwise_affine=True)\n","      (attn): MultiheadAttention(\n","        (out_proj): NonDynamicallyQuantizableLinear(in_features=256, out_features=256, bias=True)\n","      )\n","      (norm2): LayerNorm((256,), eps=1e-05, elementwise_affine=True)\n","      (mlp): MLP(\n","        (fc1): Linear(in_features=256, out_features=512, bias=True)\n","        (fc2): Linear(in_features=512, out_features=256, bias=True)\n","        (dropout): Dropout(p=0.1, inplace=False)\n","      )\n","    )\n","    (2): TransformerEncoderLayer(\n","      (norm1): LayerNorm((256,), eps=1e-05, elementwise_affine=True)\n","      (attn): MultiheadAttention(\n","        (out_proj): NonDynamicallyQuantizableLinear(in_features=256, out_features=256, bias=True)\n","      )\n","      (norm2): LayerNorm((256,), eps=1e-05, elementwise_affine=True)\n","      (mlp): MLP(\n","        (fc1): Linear(in_features=256, out_features=512, bias=True)\n","        (fc2): Linear(in_features=512, out_features=256, bias=True)\n","        (dropout): Dropout(p=0.1, inplace=False)\n","      )\n","    )\n","    (3): TransformerEncoderLayer(\n","      (norm1): LayerNorm((256,), eps=1e-05, elementwise_affine=True)\n","      (attn): MultiheadAttention(\n","        (out_proj): NonDynamicallyQuantizableLinear(in_features=256, out_features=256, bias=True)\n","      )\n","      (norm2): LayerNorm((256,), eps=1e-05, elementwise_affine=True)\n","      (mlp): MLP(\n","        (fc1): Linear(in_features=256, out_features=512, bias=True)\n","        (fc2): Linear(in_features=512, out_features=256, bias=True)\n","        (dropout): Dropout(p=0.1, inplace=False)\n","      )\n","    )\n","    (4): TransformerEncoderLayer(\n","      (norm1): LayerNorm((256,), eps=1e-05, elementwise_affine=True)\n","      (attn): MultiheadAttention(\n","        (out_proj): NonDynamicallyQuantizableLinear(in_features=256, out_features=256, bias=True)\n","      )\n","      (norm2): LayerNorm((256,), eps=1e-05, elementwise_affine=True)\n","      (mlp): MLP(\n","        (fc1): Linear(in_features=256, out_features=512, bias=True)\n","        (fc2): Linear(in_features=512, out_features=256, bias=True)\n","        (dropout): Dropout(p=0.1, inplace=False)\n","      )\n","    )\n","    (5): TransformerEncoderLayer(\n","      (norm1): LayerNorm((256,), eps=1e-05, elementwise_affine=True)\n","      (attn): MultiheadAttention(\n","        (out_proj): NonDynamicallyQuantizableLinear(in_features=256, out_features=256, bias=True)\n","      )\n","      (norm2): LayerNorm((256,), eps=1e-05, elementwise_affine=True)\n","      (mlp): MLP(\n","        (fc1): Linear(in_features=256, out_features=512, bias=True)\n","        (fc2): Linear(in_features=512, out_features=256, bias=True)\n","        (dropout): Dropout(p=0.1, inplace=False)\n","      )\n","    )\n","  )\n","  (norm): LayerNorm((256,), eps=1e-05, elementwise_affine=True)\n","  (head): Linear(in_features=256, out_features=10, bias=True)\n",")"]},"metadata":{},"execution_count":51}]},{"cell_type":"markdown","source":["# 9. Defining a Loss Function and an optimizer"],"metadata":{"id":"eAC1aWxwoHe1"}},{"cell_type":"code","source":["criterion = nn.CrossEntropyLoss()\n","optimizer = torch.optim.Adam(params=model.parameters(),\n","                             lr=LEARNING_RATE)"],"metadata":{
…
